…
iteration
iteration
iteration
iteration
iteration
iteration
iteration
iteration
iteration
iteration
ResNet14_v1
one_hot_discard_state_train shape (x_train shape): (7791, 34, 4, 1)
7791 train samples
2598 test samples
discard_ans_vector_train shape (y_train shape): (7791, 34)
__________________________________________________________________________________________________
Layer (type)                    Output Shape         Param #     Connected to                     
==================================================================================================
input_1 (InputLayer)            (None, 34, 4, 1)     0                                            
__________________________________________________________________________________________________
conv2d (Conv2D)                 (None, 34, 4, 16)    160         input_1[0][0]                    
__________________________________________________________________________________________________
batch_normalization_v1 (BatchNo (None, 34, 4, 16)    64          conv2d[0][0]                     
__________________________________________________________________________________________________
activation (Activation)         (None, 34, 4, 16)    0           batch_normalization_v1[0][0]     
__________________________________________________________________________________________________
conv2d_1 (Conv2D)               (None, 34, 4, 16)    2320        activation[0][0]                 
__________________________________________________________________________________________________
batch_normalization_v1_1 (Batch (None, 34, 4, 16)    64          conv2d_1[0][0]                   
__________________________________________________________________________________________________
activation_1 (Activation)       (None, 34, 4, 16)    0           batch_normalization_v1_1[0][0]   
__________________________________________________________________________________________________
conv2d_2 (Conv2D)               (None, 34, 4, 16)    2320        activation_1[0][0]               
__________________________________________________________________________________________________
batch_normalization_v1_2 (Batch (None, 34, 4, 16)    64          conv2d_2[0][0]                   
__________________________________________________________________________________________________
add (Add)                       (None, 34, 4, 16)    0           activation[0][0]                 
                                                                 batch_normalization_v1_2[0][0]   
__________________________________________________________________________________________________
activation_2 (Activation)       (None, 34, 4, 16)    0           add[0][0]                        
__________________________________________________________________________________________________
conv2d_3 (Conv2D)               (None, 34, 4, 16)    2320        activation_2[0][0]               
__________________________________________________________________________________________________
batch_normalization_v1_3 (Batch (None, 34, 4, 16)    64          conv2d_3[0][0]                   
__________________________________________________________________________________________________
activation_3 (Activation)       (None, 34, 4, 16)    0           batch_normalization_v1_3[0][0]   
__________________________________________________________________________________________________
conv2d_4 (Conv2D)               (None, 34, 4, 16)    2320        activation_3[0][0]               
__________________________________________________________________________________________________
batch_normalization_v1_4 (Batch (None, 34, 4, 16)    64          conv2d_4[0][0]                   
__________________________________________________________________________________________________
add_1 (Add)                     (None, 34, 4, 16)    0           activation_2[0][0]               
                                                                 batch_normalization_v1_4[0][0]   
__________________________________________________________________________________________________
activation_4 (Activation)       (None, 34, 4, 16)    0           add_1[0][0]                      
__________________________________________________________________________________________________
conv2d_5 (Conv2D)               (None, 17, 2, 32)    4640        activation_4[0][0]               
__________________________________________________________________________________________________
batch_normalization_v1_5 (Batch (None, 17, 2, 32)    128         conv2d_5[0][0]                   
__________________________________________________________________________________________________
activation_5 (Activation)       (None, 17, 2, 32)    0           batch_normalization_v1_5[0][0]   
__________________________________________________________________________________________________
conv2d_6 (Conv2D)               (None, 17, 2, 32)    9248        activation_5[0][0]               
__________________________________________________________________________________________________
conv2d_7 (Conv2D)               (None, 17, 2, 32)    544         activation_4[0][0]               
__________________________________________________________________________________________________
batch_normalization_v1_6 (Batch (None, 17, 2, 32)    128         conv2d_6[0][0]                   
__________________________________________________________________________________________________
add_2 (Add)                     (None, 17, 2, 32)    0           conv2d_7[0][0]                   
                                                                 batch_normalization_v1_6[0][0]   
__________________________________________________________________________________________________
activation_6 (Activation)       (None, 17, 2, 32)    0           add_2[0][0]                      
__________________________________________________________________________________________________
conv2d_8 (Conv2D)               (None, 17, 2, 32)    9248        activation_6[0][0]               
__________________________________________________________________________________________________
batch_normalization_v1_7 (Batch (None, 17, 2, 32)    128         conv2d_8[0][0]                   
__________________________________________________________________________________________________
activation_7 (Activation)       (None, 17, 2, 32)    0           batch_normalization_v1_7[0][0]   
__________________________________________________________________________________________________
conv2d_9 (Conv2D)               (None, 17, 2, 32)    9248        activation_7[0][0]               
__________________________________________________________________________________________________
batch_normalization_v1_8 (Batch (None, 17, 2, 32)    128         conv2d_9[0][0]                   
__________________________________________________________________________________________________
add_3 (Add)                     (None, 17, 2, 32)    0           activation_6[0][0]               
                                                                 batch_normalization_v1_8[0][0]   
__________________________________________________________________________________________________
activation_8 (Activation)       (None, 17, 2, 32)    0           add_3[0][0]                      
__________________________________________________________________________________________________
conv2d_10 (Conv2D)              (None, 9, 1, 64)     18496       activation_8[0][0]               
__________________________________________________________________________________________________
batch_normalization_v1_9 (Batch (None, 9, 1, 64)     256         conv2d_10[0][0]                  
__________________________________________________________________________________________________
activation_9 (Activation)       (None, 9, 1, 64)     0           batch_normalization_v1_9[0][0]   
__________________________________________________________________________________________________
conv2d_11 (Conv2D)              (None, 9, 1, 64)     36928       activation_9[0][0]               
__________________________________________________________________________________________________
conv2d_12 (Conv2D)              (None, 9, 1, 64)     2112        activation_8[0][0]               
__________________________________________________________________________________________________
batch_normalization_v1_10 (Batc (None, 9, 1, 64)     256         conv2d_11[0][0]                  
__________________________________________________________________________________________________
add_4 (Add)                     (None, 9, 1, 64)     0           conv2d_12[0][0]                  
                                                                 batch_normalization_v1_10[0][0]  
__________________________________________________________________________________________________
activation_10 (Activation)      (None, 9, 1, 64)     0           add_4[0][0]                      
__________________________________________________________________________________________________
conv2d_13 (Conv2D)              (None, 9, 1, 64)     36928       activation_10[0][0]              
__________________________________________________________________________________________________
batch_normalization_v1_11 (Batc (None, 9, 1, 64)     256         conv2d_13[0][0]                  
__________________________________________________________________________________________________
activation_11 (Activation)      (None, 9, 1, 64)     0           batch_normalization_v1_11[0][0]  
__________________________________________________________________________________________________
conv2d_14 (Conv2D)              (None, 9, 1, 64)     36928       activation_11[0][0]              
__________________________________________________________________________________________________
batch_normalization_v1_12 (Batc (None, 9, 1, 64)     256         conv2d_14[0][0]                  
__________________________________________________________________________________________________
add_5 (Add)                     (None, 9, 1, 64)     0           activation_10[0][0]              
                                                                 batch_normalization_v1_12[0][0]  
__________________________________________________________________________________________________
activation_12 (Activation)      (None, 9, 1, 64)     0           add_5[0][0]                      
__________________________________________________________________________________________________
conv2d_15 (Conv2D)              (None, 9, 1, 2)      1154        activation_12[0][0]              
__________________________________________________________________________________________________
batch_normalization_v1_13 (Batc (None, 9, 1, 2)      8           conv2d_15[0][0]                  
__________________________________________________________________________________________________
activation_13 (Activation)      (None, 9, 1, 2)      0           batch_normalization_v1_13[0][0]  
__________________________________________________________________________________________________
flatten (Flatten)               (None, 18)           0           activation_13[0][0]              
__________________________________________________________________________________________________
dense (Dense)                   (None, 34)           646         flatten[0][0]                    
==================================================================================================
Total params: 177,424
Trainable params: 176,492
Non-trainable params: 932
__________________________________________________________________________________________________
1.58364
............................................................0.146704
............................................................0.131461
…
